assets/ml_models/functional_external_model.pt (torch, 132692 bytes, 8 tensors)

weight f4 [128, 17]
000000 bc 25 0c 3d 15 87 fa 3c af 84 43 bf ce 11 3f 3d
       0.034215674 0.03058199 -0.76374334 0.04664784
000010 35 38 1a 3d 4e a6 34 bf 8c 9b 31 bf 87 60 34 bf
       0.03765126 -0.7056626 -0.6937797 -0.7045979
000020 a7 10 48 bf 99 86 c1 3c 89 41 77 3d b3 f1 db 3c
       -0.7815041 0.023623751 0.060365234 0.02684865
000030 05 d3 f8 3c 19 22 a5 3d 8a 89 66 3d 51 68 4d 3d
       0.03037406 0.08063144 0.05628351 0.050148312
000040 56 a5 ff 3c af bd 1f 3d 40 11 29 bf 31 f7 6d 3d
       0.031206768 0.038999256 -0.66041946 0.05809707
000050 34 40 1e 3d f4 c2 c5 3c d0 da d8 3c d9 65 37 bf
       0.038635448 0.024140812 0.026471525 -0.7163978
000060 07 1c 58 3d c8 4a c6 3c 0d 5c d9 3c 44 bb f3 3c
       0.052761104 0.02420558 0.026533151 0.029752381
000070 47 c6 7a 3d 78 3d 1a bf 14 48 1a bb 6b 0a 23 bf
       0.06122425 -0.60250044 -0.0023541497 -0.6368777
000080 06 2b 82 3d 19 47 38 bf b6 56 4a be 20 fe 4f be
       0.06355862 -0.71983486 -0.1975964 -0.20311785
000090 bb f3 f7 3e 41 45 1d be 2d ce 12 be 70 e6 80 be
       0.4842814 -0.1535845 -0.14336462 -0.2517581
0000a0 b1 68 81 be cc 01 7a be 3c 88 64 be 0e 23 58 be
       -0.25275186 -0.24414748 -0.22317594 -0.21107122
0000b0 3e ba 24 be e6 f1 87 be da dc 8e be da 1f 3d be
       -0.16086671 -0.2655174 -0.2790287 -0.18469182
0000c0 4e be f7 3d 73 00 45 be 6d 41 9c be 79 3a 68 be
       0.120968446 -0.19238453 -0.30518666 -0.22678556
0000d0 54 30 66 be 06 3b 6c be fc f1 b1 3f 1c 00 62 be
       -0.22479373 -0.2306939 1.3901973 -0.22070354
0000e0 88 4f 68 be 31 68 5d be 2e 45 66 be cc 4e 66 be
       -0.22686589 -0.21621777 -0.22487327 -0.22490996
0000f0 f0 97 64 be 99 55 6f be f6 8f 63 be 04 e2 5e be
       -0.22323585 -0.23372497 -0.22222885 -0.21765906
000100 ed cb 62 be ed 71 66 be ca 9f 5d be e1 7e 67 be
       -0.22148104 -0.22504397 -0.21642986 -0.22606994
000110 28 4a 8e be 17 47 8b be 69 11 90 be 78 84 94 be
       -0.27790952 -0.27202675 -0.28138283 -0.29007316
000120 4b cb 8a be 9b 9e 99 be 14 df 91 be d6 5f 94 be
       -0.27108225 -0.3000382 -0.28490508 -0.28979367
000130 58 4c 94 be e2 40 d9 be 6f fb 89 be 94 c7 87 be
       -0.28964496 -0.42432314 -0.2694964 -0.26519454
000140 8b 97 8c be c8 fa 8a be e2 b6 91 be 9f 9b 99 be
       -0.27459368 -0.27144456 -0.2845984 -0.30001542
000150 54 60 5c 3f 99 09 00 3d 59 c4 ef 3c 3d c3 26 3d
       0.86084485 0.031259153 0.02926843 0.040713537
000160 05 64 10 3d df 7d 54 bf 3a c7 72 3d 43 56 3f bf
       0.035251636 -0.83004564 0.05927203 -0.74741
000170 d4 52 61 3d ef 42 3e bf c4 76 36 3d 88 e5 0e 3d
       0.05501063 -0.7432088 0.044546857 0.034886867
000180 f0 4c 09 3d 5e 48 8b 3d 86 ba 48 bf 93 3c 49 bf
       0.03352064 0.06800912 -0.7840961 -0.78608054
000190 65 a1 26 3d 93 3d 23 3d 43 b5 82 be 77 e8 6d be
       0.04068126 0.039853644 -0.25528917 -0.2323321
0001a0 6c 81 2f bd 30 05 6c be f8 be a4 3c fc bf 02 3d
       -0.042848036 -0.23048854 0.020110592 0.03192137
0001b0 fa d6 a5 be 8d d9 e9 be 65 de 4b be f5 87 2e 3e
       -0.32390577 -0.4567379 -0.19909056 0.17044051
0001c0 44 3a 08 bf e1 91 48 3d 89 16 36 be 67 6e 86 3d
       -0.53213906 0.048967246 -0.17782034 0.06564026
0001d0 ec a4 76 be b0 ec b2 bc 99 77 0a 3e ca 8a 25 3d
       -0.2408635 -0.021841377 0.13522185 0.040415563
0001e0 69 71 19 bc dc 16 33 3d ce 4c 67 bf 9b 29 55 3d
       -0.009365418 0.043722972 -0.9035157 0.05204163
0001f0 c3 20 82 3d da b9 cd bc f0 03 d2 3d 26 39 00 3d
       0.06353905 -0.025113035 0.10254657 0.0313045
000200 5d 97 5f bf c6 a8 b1 bc 2a d4 ec 3b 9e a7 e8 bc
       -0.8734034 -0.021686923 0.0072274404 -0.028400239
000210 bb 73 66 bf e5 c8 fd 3c 3f 8a 46 3d ba 2a 6f 3d
       -0.9002034 0.030979583 0.048471685 0.058390357
000220 bf 37 e0 3c 36 87 75 3d d8 b2 74 3c 4a 20 2d bf
       0.027370332 0.0599434 0.014935218 -0.67627394
000230 57 a1 2c bf e7 c5 45 3d c6 e4 bc 3c db b6 16 3d
       -0.67433685 0.048284438 0.023058306 0.03679548
000240 c4 42 3d bf 37 26 86 3d e3 02 16 3d 75 be 08 3d
       -0.7393 0.06550258 0.036623847 0.03338476
000250 3c d8 30 bf ce 80 74 3d 2d 60 2a 3d df 0a 21 bf
       -0.6907995 0.05969315 0.041595627 -0.6290721
000260 7d 3f 0d 3d 6c 72 34 3d 69 42 3b 3d 80 42 03 3d
       0.034484375 0.044054434 0.04571763 0.03204584
000270 04 46 1d 3d 5b 35 1e 3d f3 94 5a 3d 65 08 fa 3c
       0.03839685 0.038625102 0.053364705 0.030521581
000280 1a 2a 2a 3d 90 3c 36 bf 8d 96 16 bf 8f 08 27 bf
       0.041544057 -0.7118616 -0.5882347 -0.65247434
000290 d2 cf 1d bf 93 35 09 3d e9 a1 ff 3c d4 f8 17 3d
       -0.61645234 0.033498358 0.031205134 0.037102535
0002a0 c6 b6 20 bf 2c 56 6b 3d d0 e3 66 be fa 6a 58 3f
       -0.6277889 0.057455227 -0.22547841 0.84538233
0002b0 bd 99 8e be dc 7d 54 be 82 bd 7c be b6 2b 82 be
       -0.27851668 -0.20751137 -0.24681666 -0.25423974
0002c0 68 21 57 be 3e cc f2 be 64 08 82 be 1d 06 79 be
       -0.21008837 -0.4742145 -0.25397027 -0.24318738
0002d0 1b 90 76 be 8a ce 66 be 99 40 81 be 09 88 73 be
       -0.2407841 -0.22539726 -0.25244597 -0.23782362
0002e0 a9 fd 61 be 32 10 87 be e9 6f 75 be ff 73 56 be
       -0.2206942 -0.26379544 -0.23968472 -0.20942686
0002f0 68 e6 55 be 5b 6e 68 be 8a 5b 6e be f0 49 4b be
       -0.20888674 -0.22698347 -0.23277107 -0.19852424
000300 33 93 2f be 78 a0 4d be 0d ed 3f be 14 e7 68 be
       -0.17145996 -0.20080745 -0.18742771 -0.227444
000310 31 76 3f be 27 a3 2b 3f 3a 4a c8 be 66 65 3c be
       -0.1869743 0.67045826 -0.3911913 -0.18398055
000320 ba ef 57 be 2e 10 61 be a6 a0 5a be fc 85 69 be
       -0.21087542 -0.21978828 -0.21350345 -0.22805017
000330 12 11 1f bf 82 e0 12 3d 2a ad 2a bf 17 ec de 3c
       -0.6213542 0.03585864 -0.6667048 0.027212186
000340 56 f4 01 3d 01 54 10 3d 8c 6e de 3c 08 3c 0a 3d
       0.031727158 0.035236362 0.027152322 0.033748657
000350 01 32 03 3d 95 14 07 bf 53 c0 d9 3b 3e 79 25 3d
       0.03203011 -0.5276578 0.0066452413 0.04039883
000360 b4 01 23 bf 54 97 06 3d 97 58 21 3d dc d2 3b 3c
       -0.63674474 0.03285916 0.039391126 0.011463847
000370 a6 6f 8e 3d ca 0d 92 be 64 6f 8b be e6 a7 92 be
       0.06954889 -0.28526145 -0.27233422 -0.2864372
000380 47 02 62 3f 6d fc 93 be ed bc 97 be 6d 79 bb be
       0.88284725 -0.28903523 -0.29636326 -0.36616078
000390 58 c0 8e be 3b 5c 95 be f5 91 93 be 12 b0 96 be
       -0.27881122 -0.2917193 -0.28822294 -0.29431206
0003a0 37 34 8d be e1 66 f0 be c1 c1 95 be c7 ba 92 be
       -0.275789 -0.4695349 -0.29249385 -0.28658125
0003b0 eb 69 90 be 54 ef 90 be a7 45 5c be ff 82 65 be
       -0.2820581 -0.28307593 -0.21510945 -0.22413252
0003c0 e3 7d 66 be 08 10 6e be 50 fb 63 be a8 91 62 be
       -0.2250896 -0.23248303 -0.22263837 -0.22125876
0003d0 80 0b b2 3f 3e 08 63 be e7 ae 60 be 35 b5 64 be
       1.390976 -0.22171113 -0.2194172 -0.2233475
0003e0 4c b9 6e be 08 b3 62 be 61 21 66 be 01 e6 65 be
       -0.23312873 -0.22138608 -0.2247367 -0.22451021
0003f0 9d ec 62 be a8 7f 5d be 5e 21 68 be f0 4a a8 bd
       -0.22160573 -0.21630728 -0.22668979 -0.08217418

bias f4 [128]
000000 f0 c8 4b 3e 25 f7 bf 3e 06 92 54 3e 2b 8a 9c bd
       0.1990087 0.37493244 0.20758829 -0.07643541
000010 ab 7c 30 3e b6 3f 93 3e 81 91 09 bc 17 6c 96 3d
       0.17235057 0.28759545 -0.008396507 0.07344835
000020 48 54 87 3e 4f ba fd 3c 98 d2 8e bd b1 b4 47 3e
       0.2643149 0.030972628 -0.06973761 0.19502522
000030 cf 41 b0 3e f3 ac 1e be aa bb 70 be bc 91 3c bf
       0.34425208 -0.15495662 -0.23509088 -0.73659873
000040 1f b1 8a 3e c7 7b 63 3d 6b a4 30 c0 d9 d4 84 3e
       0.27088258 0.055537965 -2.7600353 0.2594364
000050 e2 81 91 be ce 13 4b be 3b 93 66 be 00 5c 1a 3d
       -0.28419405 -0.19831774 -0.22517101 0.037685394
000060 1b da 3b bd f4 f9 33 3e 40 6b 76 bd e4 2e 54 3e
       -0.0458623 0.17575818 -0.060160875 0.20721012
000070 43 98 ae 3c f0 7d 4a 3e e2 e8 ee 3d 54 74 c2 bc
       0.021312838 0.19774604 0.116655126 -0.02373711
000080 8e 0b d2 3d df 0d a7 3e d7 18 0b 3e 9b 3e 52 3e
       0.1025611 0.3262777 0.13583694 0.20531695
000090 97 e2 93 be b1 fb 94 be 9b b7 4c 3d 47 45 07 bd
       -0.28883812 -0.29098275 0.049979787 -0.033025052
0000a0 03 54 91 3d 0b 13 31 3d d9 5b 7c bd 5b 04 d1 bd
       0.07096102 0.04323105 -0.06161103 -0.10205909
0000b0 73 59 b8 bc bb 56 88 3c fb 2e 83 3e 2e fe 41 3e
       -0.02250359 0.016642919 0.2562178 0.18944618
0000c0 48 a8 c7 be 2d a0 b3 3e 36 cb 85 bd aa 54 9f 3d
       -0.38995576 0.35083142 -0.065329 0.0777982
0000d0 2c 83 c6 3b bc a5 ac bd de 9d 01 bd ba b1 af be
       0.0060581174 -0.08430049 -0.031644695 -0.34315282
0000e0 16 85 68 3e 33 05 05 bf 03 1a 47 3e ee a9 e9 bd
       0.22707018 -0.5196106 0.19443516 -0.11409365
0000f0 ea e2 9a 3e 13 00 71 3e 3a 0f 73 3e 2c 79 75 bf
       0.30251247 0.23535185 0.23736277 -0.9588802
000100 98 ff 32 3e 3a 02 de be 47 e3 25 3e 59 92 87 3d
       0.17480314 -0.43361074 0.1619998 0.066197105
000110 4b 4d 98 3e c3 18 83 bd c9 6e d9 be 91 dc 9b bf
       0.2974647 -0.06401207 -0.42467335 -1.2176687
000120 bf 45 b0 3d 1a 96 ca 3e 56 68 7e 3e f3 37 46 3e
       0.08607053 0.39567643 0.24844489 0.1935728
000130 fa 0d bd bd 85 8e 6b 3e 10 6b c3 3d 6b b6 cc 3e
       -0.092311814 0.23003586 0.09541905 0.39982924
000140 b5 d9 ae 3e c0 22 1c 3d 9a 47 d5 3e be 45 1f be
       0.34150472 0.038119078 0.4165619 -0.15553948
000150 42 5c d0 ba bd c0 97 be 91 e0 d8 3e 17 12 67 be
       -0.0015896636 -0.29639235 0.4235883 -0.22565494
000160 d5 31 5f bd 8b 0c 71 be 38 c1 b2 3e 5d 70 84 3d
       -0.054490883 -0.23539941 0.3491304 0.06466744
000170 4f 10 c6 bd de 23 61 3e 46 87 fa 3d 35 ce 56 be
       -0.09671079 0.21986338 0.122328326 -0.20977099
000180 12 9c 14 3e ac 4c b6 bc 22 35 5d 3e 12 0f e4 bd
       0.14512661 -0.022253357 0.216023 -0.11135687
000190 85 04 80 3e 2d 11 be be 59 2c cd 3e 5a e8 c0 bc
       0.25003448 -0.3712248 0.40072897 -0.023548294
0001a0 f7 bf 00 be 0e 20 62 be 94 b6 85 be 6a 90 be 3e
       -0.12573229 -0.2208254 -0.2611586 0.37219554
0001b0 08 aa 4c 3e 04 3c 85 be 26 02 54 bd fd 65 3b 3e
       0.19986737 -0.2602235 -0.05175986 0.18300624
0001c0 93 2a e0 bd 1a 4d ba bd 66 ce 01 c0 5f 01 f7 be
       -0.109456204 -0.09096737 -2.0282226 -0.48243234
0001d0 bb 44 a8 3e e0 22 2f bd e3 06 88 3e c7 25 2d be
       0.32864937 -0.04275787 0.26567754 -0.16908942
0001e0 12 e3 d2 3c 24 37 83 be 53 1a 03 3d d6 49 ca 3e
       0.025743041 -0.25628006 0.032007527 0.39509457
0001f0 47 0f 89 3e b1 70 b5 be 98 7a 2f be 45 e4 9c 3e
       0.26769468 -0.3543754 -0.1713661 0.30642906

weight f4 [128, 128]
000000 76 d2 c2 be 38 a1 bb be d0 1c bd bd d2 ea f9 3e
       -0.38051194 -0.36646438 -0.09234011 0.48811966
000010 37 3c 6b be c8 2d b7 be 16 2e 3a be ac 04 a4 be
       -0.22972189 -0.35777116 -0.18181643 -0.32034814
000020 60 29 b2 be 38 d6 ca be 66 b9 55 be 21 de 6a be
       -0.34797192 -0.3961656 -0.20871505 -0.22936298
000030 90 98 ad be ac 84 40 be 00 aa fc 3e b8 99 01 be
       -0.33905458 -0.1880061 0.4934845 -0.12656295
000040 a4 b2 3d be f8 2f c8 be 93 ff 0b be aa cf a7 be
       -0.18525177 -0.39099097 -0.13671713 -0.32775623
000050 8d 5a 09 3f 6c f6 0f 3d 13 f8 34 be 4d a9 ec 3b
       0.53653795 0.035147116 -0.17672758 0.0072223307
000060 57 d6 8b be 4b b3 9f be 73 4f d8 be 02 1e a9 be
       -0.27311966 -0.31191477 -0.42248115 -0.33030707
000070 86 c8 c8 be d6 15 24 be 03 03 8f be 61 4d ec 3e
       -0.39215487 -0.16023955 -0.27931985 0.46152785
000080 ca 5d 71 be 23 57 d0 be d3 44 26 be fa b9 16 be
       -0.23570934 -0.4069148 -0.16237192 -0.14719382
000090 3a ef 01 3f 5a 28 e4 3e 71 98 b7 be 8c 17 cf 3e
       0.50755656 0.44562036 -0.3585849 0.40447652
0000a0 2e 8a b8 be b1 6d a4 be ee 28 9a be 51 b2 c9 bc
       -0.36042923 -0.32114938 -0.30109352 -0.02462116
0000b0 aa d1 a8 3d 53 ca 07 be f4 e9 80 be c2 d7 0f be
       0.08243115 -0.13260774 -0.25178492 -0.14047149
0000c0 4a 6d 07 3f 9a 7b 4c be b1 cd 8f be 32 06 b1 be
       0.52901137 -0.19969025 -0.28086618 -0.3457504
0000d0 c4 c4 ec bc b0 ad 7d be ac a7 59 be c3 f9 02 3f
       -0.028902419 -0.24773288 -0.21255368 0.51162356
0000e0 e5 e4 b7 be c3 5f b1 bd 29 7c a0 be 5d f3 3b 3e
       -0.3591682 -0.08660843 -0.31344727 0.18354554
0000f0 89 ba 87 be c9 e2 99 be e7 9d c8 be 3d 04 35 bd
       -0.26509503 -0.30055836 -0.3918297 -0.044193495
000100 2d 04 b6 be d0 17 f6 3e 6d 90 c5 be 00 f8 fc 3d
       -0.3555006 0.48065042 -0.3858675 0.1235199
000110 99 f1 b8 be 6e 7b c3 bd a7 5f fb 3e ba c8 6b bc
       -0.36121824 -0.09545027 0.49096414 -0.014391119
000120 c3 68 ae be 69 20 c0 be bf 3c 83 be cf 53 a8 be
       -0.34064302 -0.37524727 -0.25632283 -0.3287644
000130 ec 4a 83 be af af 58 be 11 4c 93 be cb b6 81 be
       -0.25643098 -0.21160768 -0.28768972 -0.25334772
000140 14 f4 a4 be 3d f0 a7 be 86 1a bd be 4b 11 13 be
       -0.32217467 -0.32800475 -0.36934298 -0.14362065
000150 d6 9c 23 be 9b 16 f7 3e 47 62 bd be 32 69 fb 3e
       -0.15977797 0.48259434 -0.36989042 0.49103695
000160 bb 18 86 be 4c 6a 29 be a5 55 41 be fd 7d f3 bd
       -0.26190743 -0.16544455 -0.18880327 -0.11889265
000170 c8 e2 8f be b0 4c 53 be 4d 60 fa bd b5 e5 ad bd
       -0.28102708 -0.20634723 -0.12225399 -0.08491079
000180 fa 6b 9d be 0b f1 b3 be 3d 3d c3 be 2a 84 f1 bc
       -0.30746442 -0.3514484 -0.3813266 -0.029481966
000190 07 61 bf be 1f 30 00 3f 26 3a ae be a4 19 57 be
       -0.37378713 0.50073427 -0.3402874 -0.21005875
0001a0 36 b8 8a bd 75 02 07 3f 7c 01 fc 3e af ea d3 be
       -0.06773417 0.52738124 0.49219882 -0.41389987
0001b0 4f 12 be be ca 05 e9 3d 96 cf 98 be 57 4c e0 3c
       -0.37123343 0.11378057 -0.29845876 0.027380152
0001c0 e8 44 a1 bc c1 dd a5 be a3 fe d7 bd da 8d b7 bd
       -0.019686177 -0.32395747 -0.10546615 -0.08962603
0001d0 61 b2 07 be ee 15 be be f8 39 b4 be 33 ee 44 be
       -0.1325164 -0.37126106 -0.35200477 -0.19231491
0001e0 b4 68 21 be 09 c6 bc bd 4c 0d 68 be 0e 1b bd be
       -0.15762597 -0.0921746 -0.22661322 -0.36934704
0001f0 ac 2a c5 be a8 6f e0 3e ab 5c 2c 3d 81 3c ad be
       -0.3850912 0.43835187 0.042080563 -0.33835223
000200 1f 60 a7 bd 8b 90 28 bd 44 d5 6e 3d ef 21 73 be
       -0.081726305 -0.041153472 0.058308855 -0.23743413
000210 4c 0b 08 3e 97 71 7d bd 0c 8b 63 bb b3 0c 80 bd
       0.1328556 -0.061875906 -0.003472033 -0.06252422
000220 19 7f 26 bc 13 79 92 bd 78 2f 04 3c b6 e4 14 be
       -0.010162138 -0.07151999 0.008067958 -0.14540371
000230 81 a2 3e 3c 5b 7d 6e 3d cf eb 88 be c3 2a 1f be
       0.011635424 0.058225017 -0.26742408 -0.15543656
000240 88 95 d1 3c 0b b8 86 bd aa f2 64 3d d6 a6 d3 3d
       0.025583997 -0.06578072 0.055895485 0.10334556
000250 3d 2b fe 3e c9 62 03 be 6b e7 e4 3d fc 90 04 be
       0.49642363 -0.12830652 0.11176952 -0.12945932
000260 ee 91 8a bc 01 34 0e bd 00 de d8 bd 8d d3 4c bd
       -0.016915288 -0.034717564 -0.10589218 -0.050006438
000270 1e b6 24 bd 8a 81 dc bd 9f f8 bc bd 6c 06 0f be
       -0.040212743 -0.10766895 -0.09227108 -0.13967294
000280 29 64 49 3e d5 c4 89 bd b5 33 66 3d 25 a2 77 bc
       0.19667114 -0.06726996 0.056201655 -0.015114342
000290 a4 aa 91 be 74 18 85 be d1 a0 ef bd a6 01 3e be
       -0.284505 -0.2599522 -0.11700595 -0.18555316
0002a0 52 52 35 bd 7d d6 2e 3e d9 1d 28 3e 0f 66 35 be
       -0.04426796 0.17074008 0.16417636 -0.17714714
0002b0 76 e9 ed 3e 4a a7 17 3c 52 b6 4e bd 48 39 b9 bd
       0.4646718 0.009256193 -0.050466843 -0.09044129
0002c0 f8 17 48 be be f6 8d 3d 66 05 b6 bd 6d c4 99 bd
       -0.19540393 0.06931828 -0.088877484 -0.07508168
0002d0 7c 8a 04 be 53 55 36 3e a1 8f e0 3d 6c 36 68 be
       -0.12943453 0.17805986 0.10964895 -0.2267701
0002e0 bf 31 52 bd ab 81 1b bf 63 52 fb bc a8 1c 43 be
       -0.051316973 -0.6074473 -0.030678933 -0.190539
0002f0 be ba 09 3e ae 00 7a 3d 1f e0 a6 bd 75 9d 0f bf
       0.13450143 0.061035804 -0.081482165 -0.56099635
000300 20 ea 80 bd 2d 84 db 3e 14 db 14 bd da 33 04 be
       -0.06294656 0.4287428 -0.03634174 -0.12910405
000310 be 70 80 bd ed 1b 5b be ab 01 74 be 80 3e ce be
       -0.06271504 -0.21397372 -0.23828761 -0.4028206
000320 3d f8 47 bd 65 32 10 bd 5c 10 1b 3c 57 02 8c bd
       -0.048820723 -0.03520431 0.00946435 -0.06836384
000330 95 fe b7 3d 4b eb 7c bd 6d af 52 bd 45 fa 93 bd
       0.089841045 -0.06174783 -0.05143683 -0.072254695
000340 fc 47 f5 bc d6 68 32 bd 7e a8 10 bd 95 60 a4 3d
       -0.029941551 -0.04355701 -0.035316937 0.08026234
000350 b4 3e d3 39 ef 7e a7 be 9c 4e 1c bd 40 9f 55 be
       0.00040291774 -0.3271403 -0.038160905 -0.2086153
000360 20 c1 46 3e d4 37 e3 bd b7 c9 59 3d 31 7c 07 bc
       0.19409609 -0.11094633 0.053170886 -0.008269356
000370 a1 14 35 bd 80 cd d4 be d0 63 3e 3d 56 e8 98 be
       -0.044209126 -0.41563034 0.046481907 -0.29864758
000380 f0 f7 56 bd 6c 4c 8c bd 06 83 00 bd 0b 1a 76 bd
       -0.052482545 -0.06850514 -0.031374954 -0.06008343
000390 7d f7 dd bd 2b 01 72 be b4 95 a2 be 84 29 76 bc
       -0.1083822 -0.23633258 -0.3175484 -0.0150245465
0003a0 41 70 51 3d eb 38 76 be a8 31 87 be ea 2a d3 bd
       0.051132444 -0.2404515 -0.26405072 -0.103109196
0003b0 ff fa 9b bd 55 fe 0e be 7c f1 8f 3d f8 1a d3 3e
       -0.07616233 -0.13964207 0.07028481 0.41231513
0003c0 ff 53 aa bd 79 21 79 bd 66 22 7c bb d7 0c b4 be
       -0.08316802 -0.060822938 -0.0038472652 -0.35166046
0003d0 05 53 25 3c 1d 6c 86 bd d4 2c d0 bc 24 80 48 3d
       0.010090594 -0.0656359 -0.025412 0.04895033
0003e0 a2 1f ba 3d 03 c7 23 bf 17 c3 8f bc 41 22 af bd
       0.09088065 -0.6397554 -0.01754908 -0.08551455
0003f0 d7 6a 9c bd f2 a8 41 be 36 10 26 be 5c 7a 5a bd
       -0.076375656 -0.18912104 -0.16217121 -0.053339347

bias f4 [128]
000000 83 c6 44 c0 2a 04 13 be a9 fa 8f bf b7 aa 3a bd
       -3.0746162 -0.14357057 -1.124837 -0.045572963
000010 7a 65 53 bd 77 eb 9a bd dd a0 b1 bd c0 45 c1 bd
       -0.051610447 -0.075644426 -0.0867326 -0.09437132
000020 0a 89 de bc e7 f7 b6 be d8 42 b0 bd 8e b6 75 3f
       -0.027164955 -0.3573601 -0.086064994 0.9598168
000030 1f 16 9d bf bc dc 33 be f0 4f 47 bf 90 9f ca 3b
       -1.2272376 -0.17564672 -0.7785635 0.006183572
000040 aa d2 80 3e df ba 51 be ba f0 02 3e 48 4e cb be
       0.25160724 -0.20481442 0.12787142 -0.3970816
000050 36 a3 ad bc 10 98 61 be 7d 34 49 3d 3b e6 4d be
       -0.02119599 -0.22030663 0.049122322 -0.20107357
000060 3a 3f a8 3d 3b 0f 6a be 9e ad c4 bd 55 b7 df be
       0.082151845 -0.22857372 -0.09603427 -0.4369456
000070 be bb 0e bf d2 98 db bd 2d 77 54 3d a1 b2 88 bd
       -0.5575522 -0.107225075 0.051871467 -0.06674696
000080 a9 34 44 bf 4b 44 a6 3d b9 fb 3a bd 45 c2 bf bd
       -0.76642853 0.081184946 -0.045650218 -0.09363226
000090 94 43 5a 3c 93 45 c1 bc 8e ad 06 3d 63 5e 21 be
       0.013321776 -0.023592746 0.03288036 -0.15758662
0000a0 30 12 54 be 57 a6 93 bd 94 32 b3 bf a9 8a 35 3e
       -0.20710063 -0.07209461 -1.399981 0.17728676
0000b0 0f 9b 8e be af d1 2f be 5d 98 67 bd 25 18 8f be
       -0.27852675 -0.17169832 -0.05654179 -0.27948108
0000c0 24 4f 0b bf 61 ad 79 bf 7b 3c 8e be bb e0 42 c0
       -0.54417634 -0.9753018 -0.27780518 -3.0449665
0000d0 38 66 87 3f dd 29 9e be c4 50 57 be 9f 58 14 be
       1.057807 -0.30891314 -0.21026903 -0.14486931
0000e0 cb 9f 96 bd 1e 4d a1 3c cd cb f5 bd f3 fe 31 3e
       -0.07354697 0.019690093 -0.120017625 0.17382412
0000f0 25 36 f1 3b 45 67 b0 3d 48 bd 75 bd 8d 10 a5 be
       0.007361191 0.08613447 -0.059994966 -0.3223919
000100 16 72 65 be 2d aa 98 bd 4b bb 9c bd 45 a6 5a be
       -0.22406802 -0.074543335 -0.07652911 -0.2135249
000110 bf 35 05 bf 33 ef 60 bf 3d 79 6b be 9d 6e 42 bd
       -0.52035135 -0.8786499 -0.22995467 -0.04746877
000120 b5 e9 e6 3e c2 10 11 be 2f a0 94 3e a7 6f a5 bd
       0.4510018 -0.14166549 0.2902846 -0.080779366
000130 d2 9e 4e be b3 f1 fa 3d 3b 5f 09 be 7d 47 37 be
       -0.20177773 0.12253132 -0.13415234 -0.17898364
000140 de a8 26 bd 77 f0 6a 3d b8 58 35 3d 0c 42 77 3e
       -0.040688388 0.05735823 0.044274062 0.24146289
000150 5e d7 a1 bd cf 18 61 bd 6f 14 d4 3c dd 48 30 3d
       -0.07902406 -0.0549553 0.02588865 0.043038238
000160 4c 6e b1 bd 02 aa a5 bd 2b db 60 bc bd b5 d3 3d
       -0.086636156 -0.08089067 -0.013724129 0.10337398
000170 18 e8 5b 3d 52 f2 69 bf c0 d6 64 3d 8f 09 56 bd
       0.05368814 -0.91385376 0.055868864 -0.05225521
000180 f1 bb e8 bd 8d 98 6b be 0e aa 84 bd 16 62 15 3f
       -0.11363972 -0.23007412 -0.06477748 0.5835279
000190 ca 85 9c bc ad 0c 10 bd 15 58 50 3d 8d 7e 97 bf
       -0.019106764 -0.03516834 0.05086525 -1.1835495
0001a0 ea 0e 17 bd 6c cb be bd 1b e0 77 bd f6 5b 10 3d
       -0.036879458 -0.093161434 -0.060516458 0.03524395
0001b0 d6 db e9 3b 71 fd 06 bc ac 0b 05 be f2 4f 98 be
       0.007136802 -0.008239136 -0.12992734 -0.29748493
0001c0 dc 13 17 3c 31 4d e3 bd ed 9d 4b 3e e2 f2 5b 3d
       0.009221043 -0.110987075 0.19884463 0.053698428
0001d0 b9 b8 ff 3e a1 b3 80 be 1c 58 21 be 73 76 75 bd
       0.4994562 -0.25137046 -0.15756267 -0.059927415
0001e0 cb e3 23 be ba 59 1c bd eb 3e 49 3d 70 2a eb bd
       -0.16004865 -0.038171507 0.04913227 -0.11482704
0001f0 2e ed da 3d fb 5a 9a bd 88 47 1a be 26 b8 d1 3d
       0.1068977 -0.075368844 -0.1506635 0.10240202

weight f4 [64, 128]
000000 c7 a1 c9 bd 27 5d 05 be 1f 01 0b be 05 74 9a 3c
       -0.0984531 -0.13023816 -0.13574646 0.01885415
000010 92 5f 52 3c 1d 2e b9 bc 28 35 40 bd 1a 56 a3 bd
       0.012840169 -0.022604996 -0.046925694 -0.07975407
000020 e8 ba b3 bc 63 3c 5b bd 07 58 7c bd 55 43 31 be
       -0.02193971 -0.053524386 -0.061607387 -0.17310841
000030 42 bc 62 3c 4b 50 10 bd 1c f4 7e ba f5 f2 36 bd
       0.0138388295 -0.035232823 -0.0009725706 -0.044665296
000040 5c cb 4e bc 46 eb 9b bd 3b 66 60 3d 3f 79 92 3a
       -0.012621727 -0.07613234 0.054784995 0.001117505
000050 c0 53 7a bd 8f 00 b8 3b 5d 0c c7 3d d7 57 c1 bd
       -0.061115026 0.005615301 0.09719155 -0.09440582
000060 0e 87 8c bd 43 81 1f bd 96 c6 6d bb bb 3c a2 3b
       -0.06861697 -0.038941633 -0.0036281697 0.0049510873
000070 f9 3e 69 3e c9 84 95 bd ae 64 4e bc b8 a5 ba bd
       0.22777928 -0.073007174 -0.012597246 -0.091136396
000080 8e 1b 89 bc b8 73 db 3c 40 fe 71 bb 58 69 26 bc
       -0.016736772 0.026788577 -0.0036925226 -0.010156952
000090 fa ce 7c bd db 96 7c 3d 82 2e 5e be 4e b7 4c be
       -0.061720826 0.061667304 -0.21697429 -0.199918
0000a0 c4 75 ac 3d c4 3d 17 bd f3 69 f6 3c d1 f5 8b 3c
       0.084208995 -0.03692414 0.030079817 0.017084988
0000b0 37 a0 33 bd 0a 8d 6e bd dc b7 85 bd fd 29 ca bc
       -0.043853965 -0.058239974 -0.06529209 -0.024678225
0000c0 e7 d2 0a bd c4 cf 74 3e b3 31 8d bd d3 28 f2 3c
       -0.03389254 0.23907381 -0.06894245 0.029560482
0000d0 6b 0c 44 3c 35 6f 76 bd 03 f3 a4 3d 0e 11 15 ba
       0.011965851 -0.06016465 0.08054163 -0.000568644
0000e0 9a e6 a4 bd 96 0c e1 bd bb b9 0d bc 4e f8 19 bd
       -0.08051796 -0.10988729 -0.008650239 -0.037590317
0000f0 71 ca 0f bd b8 75 8d bc 70 ef 4b 3d a3 9c 29 bc
       -0.035105173 -0.017268047 0.049788892 -0.0103522865
000100 c3 be f7 3c 73 84 a8 bd 1b 55 3c 3d 8f 89 8b 3c
       0.03024233 -0.08228388 0.0459796 0.017033366
000110 fa 0a 13 3c dd 79 e4 bd 35 7b 29 3d c5 ce e9 3c
       0.008974785 -0.11156056 0.041377265 0.028540978
000120 78 c0 8d 3d fb a6 cc bd f5 3b b3 3d e4 c9 78 3d
       0.06921476 -0.099927865 0.0875167 0.060739413
000130 3a 58 21 3b e1 c6 0c bd fc 16 5a 3d cb 65 b0 bb
       0.0024619238 -0.034369353 0.053244576 -0.0053832284
000140 4d ec af 3d 9e 42 c6 bc ad a3 e0 bd 7a 48 9a 3b
       0.08589993 -0.024201687 -0.10968719 0.004708347
000150 d1 69 cd 3c 54 df 9c bd b6 db 64 3d 5d 70 b9 3c
       0.025074871 -0.07659784 0.055873595 0.022636587
000160 ac 42 99 bd a1 83 d0 bc 59 88 8d 3d b0 eb 89 bc
       -0.0748342 -0.02545339 0.06910772 -0.016836017
000170 4a ba 09 3b 02 dd 7a 3c 0e 50 2e bd b4 43 e9 bc
       0.0021015578 0.015311481 -0.042556815 -0.028474666
000180 68 61 4f 3b d1 0e 37 bd a0 c7 87 3d 17 40 3f be
       0.0031643752 -0.044691864 0.06629872 -0.18676792
000190 75 31 11 bd ed ea 1a bd 3f aa 92 bc 21 56 8c 3c
       -0.035447557 -0.0378217 -0.017903445 0.017130913
0001a0 90 ba c3 bd 71 c1 97 3d ae 54 6b bd 1a c0 3f bd
       -0.09557068 0.07409943 -0.057453804 -0.04681406
0001b0 17 06 2f 3c 73 d0 0d bd 84 04 58 bd ec e9 51 ba
       0.010682604 -0.03462262 -0.05273868 -0.00080075744
0001c0 71 5f ee bd 88 11 81 bd a8 e8 c6 3c 5c 94 04 be
       -0.11639298 -0.06302172 0.024280861 -0.1294722
0001d0 8e 39 12 3e 5a eb fd 3c f5 be 14 bd e9 76 6c bc
       0.14279768 0.030996013 -0.036314923 -0.014432647
0001e0 ed 8c 2a bc ae b6 b3 bc b4 e6 a4 3d 01 4b 98 bd
       -0.010409576 -0.021937694 0.08051816 -0.07436181
0001f0 54 a0 10 3e ca 7b 89 bd 18 3c 1a 3e 79 1e 7c bd
       0.1412366 -0.06713064 0.15061986 -0.0615525
000200 7f 77 48 bd 40 b2 8b 3a a8 5f e0 bd f2 60 22 be
       -0.048942085 0.0010657981 -0.10955745 -0.15857294
000210 c0 e6 26 be 45 67 7b 3d 49 8b f7 3d b0 b8 75 3d
       -0.16298962 0.061377782 0.120871134 0.059990585
000220 97 31 42 3c fe 91 9d bd c7 36 68 3d 8e 82 d9 bd
       0.011852643 -0.076938614 0.056692865 -0.106206045
000230 16 67 02 bd ce b0 0a 3d bb 54 19 3d 09 cd ca bd
       -0.03183659 0.03386002 0.03743432 -0.099023886
000240 e2 7a 3c be 36 64 17 3d 63 35 59 be c5 5b 3c be
       -0.18406251 0.036960803 -0.21211772 -0.18394382
000250 91 3e fd 3b e1 c4 50 be b6 e9 8d 3d 22 94 d4 bd
       0.0077284058 -0.20387603 0.069293424 -0.103798166
000260 6a b7 9e 3d 25 64 01 be a3 76 d2 bb f9 59 26 3d
       0.07749827 -0.12635858 -0.006422834 0.04061315
000270 ff d3 7b 3e 21 a9 83 bc c1 e2 27 be b4 9f 8e 3d
       0.24592589 -0.016071858 -0.16395094 0.06964055
000280 a0 cc f9 bb 7a a6 c3 3d 19 6f 97 3d 5a 14 da 3d
       -0.00762327 0.09553237 0.07394237 0.10648413
000290 3e 20 d0 3d c1 1a 41 bb cc 20 92 be b5 f1 9a be
       0.101624 -0.002946541 -0.28540647 -0.30262533
0002a0 9b 30 69 bd 99 90 26 3e 2e 62 fa 3c 72 8f 85 3c
       -0.05693112 0.16266097 0.030564394 0.016303752
0002b0 56 0c 84 bd b2 fb a2 3d 21 01 d2 3d 9a 5a 47 3d
       -0.064476654 0.07958163 0.102541216 0.04867039
0002c0 74 f9 77 3c 1a 7b 01 bd 62 05 94 3c 20 46 d5 3c
       0.015135158 -0.03161154 0.018068973 0.026034415
0002d0 03 09 1d 3e 58 7d 20 3c 0c 56 75 bd 1b 85 20 ba
       0.15335469 0.009795509 -0.059896514 -0.000612335
0002e0 f0 db 42 bd be c0 ae 3d 32 80 80 3d a7 48 29 be
       -0.04757303 0.085328564 0.06274451 -0.16531621
0002f0 11 47 5e 3d ed 7d b5 bd ec 76 7c bb 9e 8a cf 3a
       0.054266993 -0.08861909 -0.0038523031 0.0015834158
000300 4f 64 bc bc 13 05 dd bb 17 0c 10 bb ac cf 62 bc
       -0.02299705 -0.0067449897 -0.0021979862 -0.013843458
000310 9d 09 43 bd ea e0 82 be d6 3e b0 bd d7 4d 53 3d
       -0.04761659 -0.2556222 -0.08605735 0.051587906
000320 79 3b 87 bd d0 ac 8e bd cc 14 18 be fb 6b d9 3c
       -0.066031404 -0.06966555 -0.14851683 0.026540747
000330 70 bf 0d bc 28 cc 2e 3d 7d 13 8c 3b 40 0d fc bb
       -0.008651599 0.042675167 0.004274784 -0.007692009
000340 c0 70 01 3d 53 f2 cf 3b d4 fa fe 3c 7a 4d 11 be
       0.031601667 0.006346026 0.031125464 -0.14189711
000350 8a 47 a5 3c 97 b6 c2 bc 4f 2c 38 be de 00 ac 3b
       0.020175714 -0.023768706 -0.17985652 0.005249127
000360 66 ab d9 3d b2 dd ef 3d 5f 00 0a be 84 c2 38 be
       0.10628395 0.11712207 -0.13476704 -0.18042952
000370 a4 d2 a5 3c 94 df 16 3d 00 0e 46 be a4 b4 7c 3c
       0.020242043 0.036834314 -0.19341278 0.015423927
000380 a5 04 1a 3d 01 53 8c 3d f7 5b c5 3d 8e 6e a3 be
       0.037602086 0.06851769 0.096366815 -0.31920284
000390 cc 8b 69 3d b1 e6 f7 3c 66 1d 9a 3d 01 ad b3 3c
       0.057018086 0.03026137 0.075251386 0.02193308
0003a0 ce 10 18 be b8 8e 9f 3a 65 28 2a 3d b3 7e 14 3d
       -0.1485016 0.0012173271 0.04154243 0.036253642
0003b0 ef 92 3d 3d 4c 7e 8c bd a0 98 eb 3d af 72 92 bc
       0.046282705 -0.06860027 0.1150372 -0.017876951
0003c0 c1 6f af 3d 4b 24 95 3d 70 17 8c bd 10 8c df bc
       0.08566237 0.07282313 -0.06840408 -0.027288467
0003d0 e1 96 e4 bc 28 0c 07 3e 86 9c 06 be 1a 66 f6 3d
       -0.027903976 0.13188231 -0.13145646 0.12031193
0003e0 99 e3 db 3d 27 9a 36 3d ac 4b 8b 3c 54 e0 80 3d
       0.1073677 0.044580605 0.017003857 0.06292787
0003f0 61 fa 6d bd d1 c5 87 3d a9 e0 19 3e f6 f0 3a ba
       -0.058100108 0.06629527 0.15027107 -0.0007131243

bias f4 [64]
000000 0f 87 93 3e 74 2d 8a 3f 37 71 73 c0 52 48 17 c0
       0.2881398 1.0795121 -3.803785 -2.363789
000010 71 b3 0c c0 bc 80 90 bf 80 15 01 3f 1f 28 42 40
       -2.1984522 -1.1289287 0.5042343 3.0336988
000020 6b cb 06 c0 9d ad 0b bf 0c 0c 00 40 39 60 39 bf
       -2.1061656 -0.5456179 2.0007353 -0.7241245
000030 f8 12 94 3e 4b 4b 9a 3f eb 45 92 bf 47 dd 8a 3f
       0.28920722 1.2054228 -1.1427587 1.0848778
000040 63 89 6a 3f 24 7e 1f bf 3e 28 44 c0 fb 8a ac 3f
       0.91615885 -0.6230185 -3.0649562 1.3479913
000050 f4 eb 3b 3f 47 fa c3 3c ce 73 89 3f fb 02 34 3e
       0.7340691 0.023923052 1.0738466 0.17579262
000060 ca 3f 77 c0 19 39 fb bf 72 9f 89 c0 83 45 eb bf
       -3.8632684 -1.96268 -4.3007135 -1.8380588
000070 bb 50 fb 3d 29 50 03 c0 ab e6 50 40 71 19 22 bf
       0.122712575 -2.0517676 3.2640789 -0.6332007
000080 04 1f 5d 3f 83 70 d8 bd 9e 4c a4 3e 79 00 73 be
       0.8637545 -0.10568335 0.32089704 -0.23730649
000090 92 be d5 be be 71 67 3f 90 8e 29 be 3f 62 25 bf
       -0.41746956 0.9040793 -0.1655829 -0.64603037
0000a0 ac 7c 2c 3f b2 dd fa 3f 3d 4c 19 bf 3f d8 d0 bf
       0.67377734 1.9598906 -0.59881955 -1.6315993
0000b0 83 96 b3 bc da 33 18 bf cd c4 07 40 93 45 0f c0
       -0.021922356 -0.5945412 2.1213868 -2.2386215
0000c0 e9 70 cb 3f e3 6a e3 3d 62 e9 d7 bf 00 22 5e 40
       1.5893832 0.111043714 -1.6868098 3.4708252
0000d0 bd 63 5d 3f b9 2b 28 40 69 e6 55 c0 ba 00 a1 bf
       0.86480314 2.6276686 -3.3421881 -1.2578347
0000e0 cf 35 3f 40 71 f0 da 3f e4 e7 c9 bd f4 90 82 40
       2.9876592 1.7104627 -0.09858683 4.0801945
0000f0 03 12 78 40 b0 55 c5 bf 9a 2f b1 bf e9 93 8f bc
       3.8760993 -1.5416775 -1.3842652 -0.017526584

weight f4 [42, 64]
000000 93 af bb 3d 1d f8 ef 3c f6 4d 82 bd 61 e7 33 3d
       0.091643475 0.029293114 -0.06362526 0.043921832
000010 38 bb 14 3e f6 fb dc 3b d5 26 b9 3c 69 88 8b 3c
       0.14524543 0.0067439033 0.022601524 0.017032819
000020 76 ed fd bd d3 11 25 3d fd 22 63 3c c5 68 ae bc
       -0.12398808 0.0403002 0.013863322 -0.021290192
000030 6a dc 46 3d 94 7e 9a bd d3 62 48 bd 17 aa 32 bd
       0.048550047 -0.07543674 -0.04892237 -0.04361924
000040 dc 52 5a bd 56 62 d0 3d 49 f1 cf 3d 56 cf 85 3d
       -0.053301677 0.10175006 0.10153443 0.06533687
000050 9e 3d d7 bd c7 9f bb 3d 68 e2 22 3d ea 40 a6 3d
       -0.105097994 0.091613345 0.0397667 0.0811785
000060 f5 d9 41 3d 48 ab b1 3d 43 fa 92 bb 3c 77 90 bd
       0.047327 0.086752474 -0.0044854 -0.07053992
000070 c5 e4 0e 3c 2d be c4 3d 29 b3 59 bd d3 3d ae 3d
       0.008721535 0.09606586 -0.053149376 0.08507886
000080 e7 3c c3 3d ec 65 41 3d 3f d1 39 3d 71 ef fe 3d
       0.095331006 0.04721634 0.04536557 0.124480136
000090 1f c2 01 3d de 15 54 3c e7 78 9f 3c 6f 89 04 3e
       0.03167927 0.012944667 0.01946683 0.12943052
0000a0 78 62 ea 3d 9a 4f 25 bd 1f b7 ef 3b cb 80 12 bd
       0.11444563 -0.040359117 0.007315531 -0.035767358
0000b0 d6 07 63 3d aa 8e 8b bd d3 39 f4 bc a4 f1 a8 bd
       0.055427395 -0.068143204 -0.029812729 -0.08249214
0000c0 0f 86 0e bd 2b 74 3a bd 94 c6 9c bd a6 2b 8f bd
       -0.034795817 -0.045520943 -0.07655063 -0.06990747
0000d0 8c 95 14 3e 25 ee b5 3c f6 93 d4 bd ef 9e eb bd
       0.14510173 0.022208283 -0.10379784 -0.115049236
0000e0 cb 84 f8 bc 94 92 79 bd 1f 9d a8 bd 2b 5f e6 bd
       -0.030336758 -0.060930803 -0.082330935 -0.112486206
0000f0 15 d1 7d bd eb 8c 74 bd bf c1 89 bd 43 69 44 3d
       -0.061966974 -0.059704702 -0.06726407 0.047951948
000100 c7 3b 8b 3c 16 6a 84 bc 0d 26 71 be 95 80 fe bd
       0.016996277 -0.016163867 -0.23549671 -0.12426869
000110 47 65 49 3c cb 7d c0 3b 93 03 26 3e c1 3d 20 3e
       0.012292213 0.0058743707 0.16212301 0.15648557
000120 38 b7 5b bd 5a 41 b0 bc 47 89 64 3e 88 a6 1b be
       -0.053641528 -0.021515537 0.22317992 -0.15200245
000130 fb 60 3a 3e 0b ef cc bc 48 1b bf bd 52 81 d1 3d
       0.18201058 -0.025016328 -0.09331375 0.10229744
000140 40 ca 4b bd 2e 57 b8 3d e9 48 cb bd c7 e0 31 3e
       -0.049753428 0.09001003 -0.09926016 0.17370902
000150 40 0b ec 3d e3 0d 1c be d8 c0 6f 3d 81 9a 94 bd
       0.11525583 -0.15239672 0.05853352 -0.07256032
000160 f9 6b 50 be 81 eb da bd d5 f6 56 be 86 83 9c bb
       -0.20353688 -0.1068945 -0.20992596 -0.004776421
000170 72 71 00 be 9b 0e 03 bd 23 44 50 3e a0 bf 59 3d
       -0.12543276 -0.03199635 0.20338492 0.053161263
000180 76 16 5e 3c 5d 44 18 bd 34 00 08 3e 51 4e 64 3e
       0.01355516 -0.03717457 0.13281327 0.222955
000190 77 5c 90 be 20 d9 4a 3d 8f e1 3b be 2a 2c 34 bd
       -0.28195545 0.049523473 -0.18347763 -0.04398743
0001a0 ab a2 97 3d b4 bf 6a 3d d3 1f ba 3d 07 5c 14 be
       0.07404073 0.05731173 0.09088101 -0.1448823
0001b0 57 b6 aa bd 41 32 a3 bd ce fb e6 3b a9 4e f5 bd
       -0.0833556 -0.079685695 0.0070490604 -0.11977894
0001c0 79 40 91 3d e0 d9 13 bd 8a d7 33 be c9 0a 33 3e
       0.07092375 -0.036096454 -0.1756269 0.17484583
0001d0 8d bd 55 3c c6 e9 a0 3d 7b 10 df bd 02 5d 1b be
       0.013045681 0.07857089 -0.10891815 -0.15172198
0001e0 00 11 86 3d ff 15 39 3e 11 b8 9f be 67 d8 93 3e
       0.06546211 0.18074797 -0.3119512 0.2887604
0001f0 fc 05 78 3e b8 00 38 be 72 40 06 be 2d cc 44 bd
       0.24221033 -0.17969024 -0.13110521 -0.04804628
000200 23 1f 91 3d 03 a1 0f be fc 79 75 be e9 20 0e bd
       0.07086017 -0.14026265 -0.23972315 -0.034699354
000210 42 4f 9e 3d 79 4b d4 3d f5 66 a5 bb 8e 24 99 3d
       0.07729961 0.10365958 -0.005047674 0.074776754
000220 ff 05 78 bc 16 29 42 bd 06 fd 56 3e 26 97 8e be
       -0.015138148 -0.047402464 0.20994958 -0.27849692
000230 d1 15 a8 3d 2f 0e 47 3e 03 11 24 be 99 09 2f 3e
       0.08207286 0.19439004 -0.16022114 0.17093505
000240 fb 39 86 3c 9b 89 30 bc 6d 18 63 be ac 3e 64 3d
       0.01638507 -0.010774995 -0.22177286 0.05572383
000250 22 57 55 3d 83 c1 ca bd c2 60 b2 3d 1b 6e 0d bd
       0.05208505 -0.09900191 0.08709861 -0.034528833
000260 c8 61 80 be c1 17 3f be 4f 37 87 be 8a b8 58 be
       -0.250746 -0.18661405 -0.26409385 -0.21164146
000270 fa f2 d4 3d 65 8e 84 bd ba 69 8f 3e dc 18 7d 3d
       0.103979066 -0.06472472 0.2801035 0.061791286
000280 32 0d 4c 3e 6c 02 ff 3a 58 6e 33 3e c0 a3 83 3e
       0.19926909 0.0019455678 0.17522562 0.2571087
000290 2f 1b 43 be 36 1f 43 3a 42 0e 5e be bd d5 63 3c
       -0.19053338 0.00074433105 -0.21685126 0.01390594
0002a0 58 b7 9b 3d 3a ad 18 3e 26 9c fc bb f0 35 36 be
       0.076033294 0.1490983 -0.007709044 -0.17794013
0002b0 af c1 d0 3c 12 19 36 be 2f 85 de bd 69 c1 58 be
       0.02548298 -0.17783001 -0.108652465 -0.2116753
0002c0 db 01 8b 3d d4 74 14 3d f8 1d 42 be 1b c6 8a 3e
       0.06787463 0.03624423 -0.18956745 0.27104267
0002d0 71 9f 87 bb 4a 7d 63 3d 27 c9 01 be 95 93 38 be
       -0.00413888 0.055539407 -0.1267439 -0.18025048
0002e0 d7 bd 81 3d 71 7d 41 3e cb 3e c9 bd 8e 56 95 3e
       0.06335037 0.18895508 -0.0982643 0.29167598
0002f0 e3 cf 45 3e c2 ad f6 bd 06 66 1e bd 9d d6 11 be
       0.19317584 -0.120448604 -0.038671516 -0.14242025
000300 eb 81 84 3e 1f e1 ca 3e df 13 c9 be ff c4 ea be
       0.2588037 0.3962488 -0.39272973 -0.4585342
000310 54 be 13 bf 08 40 ae bd 1f e1 07 bf 6e 32 d1 3e
       -0.5771229 -0.08508307 -0.5307788 0.40858787
000320 31 ca 7f be 6c f5 5d 3e f6 43 1d 3e 0c ec ea 3d
       -0.24979474 0.21675652 0.15357956 0.114708036
000330 85 59 f2 be 60 80 fe 3e 99 4f 5a be c3 18 5a 3e
       -0.47333923 0.49707317 -0.21319427 0.21298508
000340 84 c1 85 3d ac 0a 9e 3e 69 fc 5e bf 23 e4 80 be
       0.06531051 0.30867517 -0.871039 -0.25174055
000350 bc 65 54 be 4a 0f 13 bd b6 ed f4 3d 0a 6a e5 bd
       -0.20741934 -0.035903253 0.11959402 -0.11201866
000360 c5 0c 4f be 9d 3b 08 bf 3f 9e 44 bf 57 f9 ed be
       -0.20219715 -0.5321596 -0.76803964 -0.46479294
000370 cf a0 f6 3e c8 be 0a bf 05 c4 1c 3f 5e c2 30 3e
       0.48169562 -0.5419736 0.612366 0.17261645
000380 0c 1b 24 3e a1 a4 4c 3e c7 99 78 3e 66 b1 90 3e
       0.16025943 0.19984676 0.24277411 0.28260344
000390 0a a8 88 3e 99 8f 11 be c6 0b 54 3e 69 a1 2e 3d
       0.26690704 -0.14214934 0.20707616 0.0426344
0003a0 ad 61 ea bd 36 07 33 3f d4 19 99 3e 70 50 57 be
       -0.114444114 0.6993288 0.29902518 -0.21026778
0003b0 78 73 14 be 91 38 87 be c8 e9 08 3f 7f 32 a4 be
       -0.14497173 -0.26410344 0.5348172 -0.32069775
0003c0 85 7c eb 3d 22 02 5e 3c b4 27 d6 be b5 ed cc 3e
       0.114983596 0.013550313 -0.41827166 0.40025106
0003d0 ec 5e 97 3e 3e d2 f9 3d b6 80 e5 be 60 7c 12 be
       0.29564607 0.12198304 -0.4482476 -0.14305258
0003e0 a1 ac 2a 3f fd a1 0e 3e 94 40 11 3e bf 9d 18 3f
       0.6666966 0.13928981 0.14184791 0.596157
0003f0 c2 18 f2 3e 5b 9d b3 be d8 af e8 3c 64 4b b7 3d
       0.47284514 -0.3508099 0.028404161 0.089499265

bias f4 [42]
000000 52 40 87 3d 64 9c 17 3f 3b ed 1e 3f 4f 42 a8 3f
       0.06604065 0.5922301 0.62080735 1.3145236
000010 a8 74 0e 3f 12 cd c5 bf 92 26 9b bf 2b d4 67 3f
       0.55646753 -1.5453207 -1.2121146 0.9055812
000020 9c 5a d4 3e 93 e5 26 3f 48 67 ae bf 5e 01 f7 3d
       0.4147538 0.6519405 -1.3625269 0.12060808
000030 96 a0 29 bf 24 13 be 3f 06 b2 4b 3e db cb a3 3f
       -0.6626066 1.4849591 0.1989213 1.2796587
000040 08 59 88 be cc 04 5e bf c7 99 96 3d e0 0b 14 bf
       -0.26630425 -0.8672607 0.073535495 -0.5783062
000050 d6 4e c8 3f 19 9a b9 be 77 1b eb 3d cd 86 aa 3f
       1.5649059 -0.3625038 0.11479848 1.3322388
000060 19 36 aa bf 5b 08 21 be c5 2b cc 3e 2b d0 16 c0
       -1.3297759 -0.15725844 0.39877144 -2.3564556
000070 cf 46 43 bf ce 29 33 3d b4 a2 b8 3f 5f d7 b7 bd
       -0.7627992 0.04374104 1.4424653 -0.08976626
000080 7d 8e 97 3f 4e 68 56 be 35 60 d1 be c5 5b 59 3f
       1.1840359 -0.20938227 -0.40893713 0.84905654
000090 9a 5d 44 3d d0 9c 73 bf be ea f4 be 4f d4 38 3f
       0.047940828 -0.9516115 -0.47835344 0.7219896
0000a0 f2 95 9c bf ec 2b 9f bf
       -1.223326 -1.2435279
